…
=======================================================================================================================================================================================================================
Layer (type:depth-idx)                   Input Shape               Output Shape              Param #                   Param %                   Kernel Shape              Mult-Adds                 Trainable
=======================================================================================================================================================================================================================
NeuralQuadModel                          [1, 12]                   [1, 1, 12]                --                             --                   --                        --                        True
├─Sequential: 1-1                        [1, 16]                   [1, 64]                   --                             --                   --                        --                        True
│    └─Linear: 2-1                       [1, 16]                   [1, 64]                   1,088                       5.88%                   --                        1,088                     True
│    └─ReLU: 2-2                         [1, 64]                   [1, 64]                   --                             --                   --                        --                        --
│    └─Linear: 2-3                       [1, 64]                   [1, 64]                   4,160                      22.48%                   --                        4,160                     True
│    └─ReLU: 2-4                         [1, 64]                   [1, 64]                   --                             --                   --                        --                        --
│    └─Linear: 2-5                       [1, 64]                   [1, 64]                   4,160                      22.48%                   --                        4,160                     True
│    └─ReLU: 2-6                         [1, 64]                   [1, 64]                   --                             --                   --                        --                        --
│    └─Linear: 2-7                       [1, 64]                   [1, 64]                   4,160                      22.48%                   --                        4,160                     True
│    └─ReLU: 2-8                         [1, 64]                   [1, 64]                   --                             --                   --                        --                        --
│    └─Linear: 2-9                       [1, 64]                   [1, 64]                   4,160                      22.48%                   --                        4,160                     True
│    └─ReLU: 2-10                        [1, 64]                   [1, 64]                   --                             --                   --                        --                        --
├─Linear: 1-2                            [1, 64]                   [1, 12]                   780                         4.21%                   --                        780                       True
=======================================================================================================================================================================================================================
Total params: 18,508
Trainable params: 18,508
Non-trainable params: 0
Total mult-adds (Units.MEGABYTES): 0.02
…
=======================================================================================================================================================================================================================
Layer (type:depth-idx)                   Input Shape               Output Shape              Param #                   Param %                   Kernel Shape              Mult-Adds                 Trainable
=======================================================================================================================================================================================================================
QuadLSTM                                 [1, 12]                   [1, 1, 12]                --                             --                   --                        --                        True
├─Sequential: 1-1                        [1, 12]                   [1, 64]                   --                             --                   --                        --                        True
│    └─Linear: 2-1                       [1, 12]                   [1, 64]                   832                         3.37%                   --                        832                       True
│    └─Tanh: 2-2                         [1, 64]                   [1, 64]                   --                             --                   --                        --                        --
├─Sequential: 1-2                        [1, 12]                   [1, 64]                   --                             --                   --                        --                        True
│    └─Linear: 2-3                       [1, 12]                   [1, 64]                   832                         3.37%                   --                        832                       True
│    └─Tanh: 2-4                         [1, 64]                   [1, 64]                   --                             --                   --                        --                        --
├─LSTM: 1-3                              [1, 1, 4]                 [1, 1, 64]                17,920                     72.69%                   --                        17,920                    True
├─LayerNorm: 1-4                         [1, 1, 64]                [1, 1, 64]                128                         0.52%                   --                        128                       True
├─Sequential: 1-5                        [1, 1, 64]                [1, 1, 64]                --                             --                   --                        --                        True
│    └─Linear: 2-5                       [1, 1, 64]                [1, 1, 64]                4,160                      16.87%                   --                        4,160                     True
│    └─ReLU: 2-6                         [1, 1, 64]                [1, 1, 64]                --                             --                   --                        --                        --
├─Linear: 1-6                            [1, 1, 64]                [1, 1, 12]                780                         3.16%                   --                        780                       True
=======================================================================================================================================================================================================================
Total params: 24,652
Trainable params: 24,652
Non-trainable params: 0
Total mult-adds (Units.MEGABYTES): 0.02
…
